Javier_agent/Javier_Agent.pt (torch, 11726 bytes, 4 tensors)

weight f4 [64, 12]
00000000: b792 63be 814b 653e d2f3 b9bd af81 903d
00000010: b4dd 00be bbd3 62be 0cdc 32be 9c39 593e
00000020: a942 8ebd 51f6 f73d 79c9 b7bd b513 8d3e
00000030: f56d 7dbe 385a 903e d102 8a3d cd70 24be
00000040: 3925 023d 77a9 14be f160 a3be 3475 1dbe
00000050: 64eb 67be ec43 4fbe 1da4 1c3e 61a3 5b3e
00000060: e6da f43d 39b4 cabd 8574 bd3d 00f9 913c
00000070: 6753 3f3e 3411 cbbd d1cc bebd ba53 3c3e
00000080: 5481 c13c fb7a 92be dc22 e13d b4ee 14be
00000090: f663 133e 6fe9 303e a6b5 333e 5263 20bd
000000a0: bbc4 14be c7c4 9fbd a709 b33e 7118 233e
000000b0: 63de 74be 9d2b e73d 2d91 8abd 99b5 053e
000000c0: eb6a e2bc 049c 41be 5dc8 8dbe b263 15be
000000d0: d27e 333e e3c5 5e3e 60a7 1dbe be94 8f3d
000000e0: bb4f 51bd 387a d03d 4872 69be 26b5 6ebc
000000f0: d173 a33d 0f1e 533d 2ccd 9ebd c223 ae3d
00000100: 69c7 79be 06a2 3ebe 0efc 193e f085 0bbe
00000110: c213 033e 536a a63c 1c0b 403e c98b 8f3d
00000120: 45f3 afbe 20f8 0f3d e586 1c3d d4cf 38be
00000130: c51b 65be 11c2 543e 4b51 4dbe 6adf 9dbd
00000140: fa1c 8a3e 1209 25be 23cf 2fbe 050a f3bd
00000150: 5143 193e 5947 35be e043 7d3e 570a 063d
00000160: bf7e cbbd fb65 22be 0ae0 3ebd eea5 2abe
00000170: 2921 ea3d 666d 4dbe fb76 213e 288e be3c
00000180: 028f 763c f82c 22bd 76d7 8bbd 5b8b 03be
00000190: d455 4f3c 76eb 533e 6a09 8cbe 8c33 543e
000001a0: 70d7 cf3d e7ee c93d 0315 56be bfdb 8e3e
000001b0: 05c4 80bc d12e 353d 55dd a13d 4c9f 47bd
000001c0: 9300 3cbe bffc 4f3c 1cc5 283e ec7f f43d
000001d0: dddc 513e 0481 1ebe 330c 393e 78dc 4cbd
000001e0: 6d4c 373c fa54 a1be e9ba 94be 502e 88bc
000001f0: 05b6 023e 46f6 2bbe 6463 8cbe ba6d 793b
00000200: 81ae 633e ab03 45be 591c 493e 7111 8b3d
00000210: f80c 0d3e 9178 fcbd eaab fdbd 1297 62be
00000220: b2ee c93d f8ac 7abd dd0c 74be 9242 563e
00000230: bbc2 69be a771 d23d 0174 c2bc 863b 9bbe
00000240: 585d 6c3e 0d85 64bd 6c7c 093e 0dad 2b3d
00000250: df90 743d 1e7f edbd 5ad6 5abe 17ba 593e
00000260: 2163 22be 4022 fc3b f3a6 a0bd ba87 d63d
00000270: 351d 7ebe 6655 93be 02a9 babb a841 5fbe
00000280: 2466 5bbe cad9 68be c45b e0bc f172 4a3d
00000290: 6f36 57be 535b 4a3e 6894 b5bd 425f 93be
000002a0: 7d47 793b cba4 62be 250e 793b 7c8e 02be
000002b0: d33a 8c3e 0ad5 833d 66ab 12be c3c7 3dbd
000002c0: 70df 17be e9d5 27be 5c19 48be d7fe 0d3d
000002d0: d28c 99bc 2697 173e 0d05 febc df84 57be
000002e0: c951 593e 8048 5e3e 2d0f 323d a8e4 2ebe
000002f0: adb3 89be a4fd 9cbd 82b7 823b d121 6bbd
00000300: cd20 173e af59 2abe f8d4 31be 044d 1fbe
00000310: 8a31 37be 3ca4 cebd d0a5 aa3d d424 223e
00000320: 4792 94bd f5ff c2bb 5058 18be 8292 0dbe
00000330: ecd7 d7bd ab9e 1c3d a1b2 41bd 6c72 70be
00000340: 370c 17be 0ee9 4f3e b45f d7bd 200c 1a3e
00000350: 3d9a f83d 05d1 fd3c be93 5a3d 3b24 1cbd
00000360: c88d 3fbe 60e3 31be 3a7f dd3d dd88 533e
00000370: 4dc7 a03a 1fb0 083c 5802 42be ea8d 3dbd
00000380: d7eb 283d 7677 82be f705 cd3d 9e03 903d
00000390: 5993 753e e20d 393e e27c 6ebe 3f4e 5ebe
000003a0: bc77 a03d 07dd e53d 490f 7bbe c9b1 d6bd
000003b0: 5a45 a3be 4035 57be 6c12 823c 6386 6fbd
000003c0: bc3c 4cbe 1109 87be 6d4f 1abe c798 463d
000003d0: 3ad2 6fbe 0ba4 3abe a5cb 82be b9c4 6abe
000003e0: d7a9 2bbe aac9 e3bd 18ce 29bd a7b4 8bbd
000003f0: 6102 92bd f8d6 6a3e e337 79be 2b19 2c3e
-0.22223936 0.22392084 -0.09079708 0.07055985 -0.12584573 -0.22151081 -0.17466754 0.21213382
-0.06946308 0.12107528 -0.08973975 0.27554098 -0.24748977 0.2819383 0.067388184 -0.16058655
0.03177378 -0.1451777 -0.31909898 -0.1537674 -0.22648388 -0.20240754 0.15296979 0.21449043
0.11955814 -0.09897656 0.0925074 0.017818928 0.18684159 -0.099153906 -0.093164094 0.18391314
0.023621239 -0.28609452 0.10992977 -0.14544183 0.14393601 0.17276548 0.17549762 -0.03915722
-0.14528172 -0.07801204 0.34968302 0.15927292 -0.23912959 0.112876154 -0.06765971 0.13057555
-0.027638873 -0.18907171 -0.27691928 -0.14588812 0.17528847 0.21755175 -0.1539588 0.07010792
-0.051101428 0.101795614 -0.22797501 -0.014569556 0.079810746 0.051542338 -0.07753977 0.08502914
-0.24392475 -0.18616495 0.15037557 -0.13625312 0.12800506 0.020314371 0.18754238 0.07009084
-0.34365287 0.03514874 0.038214583 -0.1804803 -0.22373874 0.20777155 -0.20050542 -0.077086285
0.26975232 -0.16116741 -0.1716886 -0.118671454 0.14967085 -0.17702998 0.24732924 0.032724705
-0.09936284 -0.15859215 -0.04660038 -0.1666486 0.11432106 -0.20061263 0.15768044 0.023261145
0.015048744 -0.039593667 -0.06828205 -0.12846129 0.01265474 0.2069529 -0.27350932 0.20722789
0.10148513 0.0986002 -0.20906453 0.27902028 -0.01571847 0.0442341 0.07903544 -0.0487359
-0.18359594 0.012694537 0.16481441 0.11938462 0.20494409 -0.15478903 0.1807106 -0.050014943
0.011187655 -0.31510144 -0.2904885 -0.016623646 0.12764747 -0.16793165 -0.2741958 0.0038059787
0.22234537 -0.1923968 0.1963972 0.06790436 0.13774478 -0.12327684 -0.12386306 -0.22127941
0.09859981 -0.061200112 -0.23833032 0.20923832 -0.2282819 0.10275584 -0.023736956 -0.3031885
0.23082483 -0.05579095 0.1342637 0.04191308 0.059708472 -0.11596511 -0.21370831 0.21262394
-0.15858127 0.0076945126 -0.07844343 0.104751065 -0.24815829 -0.2877609 -0.005696417 -0.2180239
-0.21425682 -0.2273933 -0.027387507 0.049426023 -0.21016859 0.197614 -0.08866197 -0.28783613
0.0038036995 -0.22133176 0.0038002816 -0.12749666 0.2738863 0.06437118 -0.14323196 -0.046333086
-0.14831328 -0.16390194 -0.19540924 0.034666862 -0.018743906 0.14803752 -0.031008268 -0.2104678
0.21222605 0.21707344 0.043471504 -0.17079413 -0.26894894 -0.076655656 0.003989161 -0.057405297
0.14758606 -0.16635774 -0.17366397 -0.15556723 -0.17889991 -0.10089919 0.083324075 0.15834361
-0.07254463 -0.0059509226 -0.14877439 -0.1382542 -0.10539231 0.038237255 -0.047289494 -0.23481148
-0.14750753 0.20303747 -0.10516301 0.15043688 0.121387936 0.030983457 0.053363554 -0.03812049
-0.18706429 -0.17371893 0.10815282 0.20657678 0.0012266428 0.008342772 -0.18946207 -0.046277918
0.04124054 -0.25481766 0.10010903 0.0703194 0.2398199 0.18071702 -0.23289827 -0.21709536
0.078353375 0.11223798 -0.2451755 -0.104831286 -0.3188885 -0.21016407 0.015877925 -0.05847777
-0.19945043 -0.26374105 -0.15069361 0.048485544 -0.23420039 -0.1822664 -0.25545993 -0.22926606
-0.16764008 -0.11122449 -0.041456312 -0.06821566 -0.0712936 0.22933567 -0.24337725 0.16806476

bias f4 [64]
00000000: 281d 1fbe 8b64 57be 7e42 e0bd 4c0f 93bc
00000010: b2f8 4d3d dce2 08bc 72da 61be 2eec 723e
00000020: 8c7f 493e 062e 873d 8fea 843c 5620 7c3e
00000030: c071 ccbd 20fd 003e 2c10 553d 50f0 2fbe
00000040: 49eb 533e 31d5 45be 3fee a93d bf27 48be
00000050: 152d 603e 5c55 7dbe 3682 433e 3d55 9ebe
00000060: 9fb3 963e 7e1a 1d3e 2b83 0f3c 7594 37be
00000070: 32a4 babd 5fe9 d03d 6241 0ebe 7294 c73d
00000080: 3c59 093e 9515 2f3c 37ac a83c d2b1 873c
00000090: 8b0c bb3d 71c6 5c3e b98d 9f3e 9a53 763e
000000a0: 19a3 593d 5645 c3bc 406e 0dbe 6a56 8a3e
000000b0: 0004 82be 4f98 833e 07c8 0abd aa9f 86bd
000000c0: 4e17 81be f38f 2d3e e268 29be e992 003e
000000d0: ac14 80be 8e50 463e 627b 21be f41c 643e
000000e0: baa2 05be 2f84 383e 9593 80be 540a 473d
000000f0: e15c 553d e65b 693e cb95 0fbb a82c 673e
-0.15538466 -0.21034448 -0.109501824 -0.01795163 0.050286002 -0.008354869 -0.22055987 0.23722908
0.19677562 0.06600575 0.016225128 0.2462171 -0.099826336 0.1259656 0.052017376 -0.17181516
0.20695223 -0.19319607 0.08297395 -0.19546412 0.21892197 -0.24739593 0.1909264 -0.30924407
0.29433915 0.15342137 0.0087593 -0.17927726 -0.09113349 0.10200762 -0.13892129 0.097451106
0.13412946 0.010686298 0.020589931 0.016564284 0.09133252 0.21560074 0.31162813 0.24055329
0.053134058 -0.023836773 -0.13811588 0.27019054 -0.25393677 0.2570214 -0.033882167 -0.06573422
-0.25213093 0.16949444 -0.16543916 0.12556042 -0.2501577 0.19366667 -0.15769723 0.2227667
-0.13050357 0.18019174 -0.25112596 0.048593834 0.05209053 0.22788963 -0.0021909352 0.22575629

weight f4 [3, 64]
00000000: 643e bfbd a3a4 5cbd ef18 8f3c 341a 603d
00000010: 8915 6dbd 4c4f d7bc f2ed aabc 8794 cbbd
00000020: c279 df3d 8ac0 d0bd 4841 fe3c 477a 64bd
00000030: 77b7 243d 02df 163a 5b67 ce3c 20c4 f1bc
00000040: dba3 a9bd e829 233d 290f c3bd d866 753d
00000050: 49c4 81bc 51bc 863b 2119 c5bd 35ea 6d3d
00000060: 147b b2bd 34bd adbd 5c11 90bd 7a60 6e3d
00000070: 8dbe f7bc 1a14 ed3d 30cb e13d 96b2 cc3d
00000080: 6e5b 523b e06f a23d 9663 493d f697 4c3d
00000090: c12c 43bd d088 9b3d b042 6d3d 3eaf a8bd
000000a0: 888b 943c 28d9 c9bd aff6 9f3d 4355 e13d
000000b0: f42a 6abd 008b 3a3b d186 d6bd 252f 103e
000000c0: 4d1f 16bd 8a51 c43d 8ddc 7cbd a0ec 12bc
000000d0: 54d7 7e3d 60c0 c9bb 2378 c53d c429 1f3d
000000e0: 880d 9bbd 3838 c13d 2bbc 79bd 143f a4bd
000000f0: c09b d6bd b88c f6bc 7217 6abd ed72 91bd
00000100: 2129 b23b 6f06 7cbd c718 02bd 9f72 d33c
00000110: 205c 5fbd 0cc0 cf3d fd20 70bd 7f8a 1b3d
00000120: c9f9 d3bc f489 563c 0e0d a9bd 0a9f 8f3d
00000130: 417c 643d e307 29bd 8bd0 e3bb 58a6 d03d
00000140: 7676 e63c 4021 c8bc 5337 ae3c 5adc 2cbe
00000150: 0af8 b93c d7ac 983d d862 88bd f576 333d
00000160: e806 dd3d b053 e73c f364 9ebd 67dd 29bd
00000170: daa1 bcbc b502 82bd 9b92 893d c7a5 f9bb
00000180: cffb 5abd 8797 b4bd e775 9bbd 9d2e a03c
00000190: aaa1 a03d c2dc b13d c564 0b3d e4d6 493d
000001a0: 37b3 ae3d 17cd 983c 07a7 123d acff c5bd
000001b0: 39b1 ed3d 6825 66bd 54c5 9dbd 7e3b 61bc
000001c0: 0052 8a3d 0429 53bc 2bd3 04be 1e7c 95bd
000001d0: 4005 4c3b c07f 30bb fb28 85bc 6b6a 733d
000001e0: 69d8 b8bd 27c8 0ebd 46f5 9f3d 966d 503d
000001f0: 523d cbbc 8504 e33d 38e2 07be 8ab5 0cbc
00000200: cb1d 2ebd 32ee 25bd 4672 30bd 6bd0 df3d
00000210: 7d61 89bd c70f 763d 34fe 94bd 446a 083e
00000220: a137 9e39 8ce0 00bd c75c 8a3b b5e7 8f3b
00000230: ff84 d0bd 1909 dc3c 0e9c c53d 3450 27bd
00000240: 6826 bd3c e49b cd3d 2a41 473c 0852 aa3c
00000250: 94b2 97bd 8a65 9d3d abc4 ab3d 0bf0 a7bc
00000260: d2e4 9c3d 635a a1bd 8eb8 533d b605 78ba
00000270: db49 ca3c 14b5 b1bc 7bd6 173d 4a10 823c
00000280: df05 e7bb b0b0 a4bd 2428 ab3d f4a0 acbd
00000290: 896e 53bd 4cf9 b63d 9f0b fb3c cc88 f9bd
000002a0: a22c 74bc b14e 9f3d 3606 6b3d 0f9e c8bd
000002b0: c3fa 05bd 3ed6 d1bd 6aad 24bd b685 8dbc
000002c0: 19b9 d43d a00d b0bd c238 52bd 2426 36bd
000002d0: a029 2cbd 54eb 73bd 01c6 bcbd 6459 d53d
000002e0: 9dea 17bd b63a cdbc 00bd a6bd f97a 8e3d
000002f0: 60e2 d53d 8239 7bbd 2eb3 fd3b eddc 91ba
-0.09338072 -0.053867947 0.017467944 0.05471249 -0.057881866 -0.026282929 -0.020865414 -0.09940439
0.10911895 -0.10192974 0.031036988 -0.055780675 0.04021403 0.00057552767 0.025195768 -0.029512465
-0.08283206 0.039834887 -0.09524376 0.059912533 -0.015840666 0.0041118045 -0.096239336 0.058084685
-0.087148815 -0.08483353 -0.07034561 0.058197476 -0.030242229 0.115761 0.11025083 0.09995
0.0032097953 0.07931495 0.04916724 0.04994961 -0.047650103 0.07594454 0.057924926 -0.0823655
0.01813294 -0.098558724 0.07810723 0.110025905 -0.05716987 0.0028464198 -0.10474933 0.14080484
-0.036650945 0.09585865 -0.06173377 -0.008967549 0.06221707 -0.006156966 0.09642055 0.03885819
-0.0757094 0.09434551 -0.060970467 -0.08019844 -0.10478926 -0.030096397 -0.057151265 -0.071019985
0.005437032 -0.061529573 -0.03176191 0.025811492 -0.054531217 0.10144052 -0.05862521 0.037973877
-0.025875943 0.013094414 -0.08254443 0.07012756 0.05578256 -0.041267287 -0.0069523505 0.101879776
0.028132658 -0.024429917 0.021266615 -0.16880932 0.022701282 0.074548416 -0.06659478 0.04381462
0.10792333 0.028238147 -0.07734098 -0.04147091 -0.023026396 -0.063481726 0.06717416 -0.007618639
-0.0534628 -0.08817964 -0.075908475 0.019553477 0.07843335 0.08684684 0.03403165 0.0492772
0.08530276 0.018652482 0.03580382 -0.09667906 0.11606068 -0.056188017 -0.07703653 -0.013747094
0.067539215 -0.012888197 -0.12971179 -0.07299064 0.003113106 -0.0026931614 -0.016254893 0.05942766
-0.09025652 -0.03485885 0.07810454 0.05088576 -0.024809513 0.110848464 -0.1326989 -0.008588204
-0.04250888 -0.040510364 -0.04307773 0.109284244 -0.067080475 0.06007364 -0.07275048 0.13321787
0.00030177555 -0.031464145 0.0042224857 0.0043916353 -0.10181617 0.026859807 0.09648906 -0.040847972
0.023089603 0.100394994 0.012161532 0.020791069 -0.07407108 0.07685383 0.08387121 -0.020500204
0.076608315 -0.07878568 0.051689677 -0.00094613 0.02469342 -0.02169279 0.03706978 0.015876908
-0.0070502604 -0.08041513 0.083572656 -0.08429137 -0.051619086 0.08934268 0.03064519 -0.12184295
-0.014903219 0.07778681 0.05737897 -0.09795772 -0.032709848 -0.102459416 -0.040204443 -0.017275672
0.10386867 -0.08596349 -0.05132366 -0.044469967 -0.042031884 -0.0595506 -0.09217454 0.104174405
-0.03708898 -0.02505241 -0.08141518 0.06957049 0.10443568 -0.06133414 0.007742307 -0.0011128463

bias f4 [3]
00000000: 393a b93d a2f9 e13d 7285 0abd
0.09044308 0.11033942 -0.03381867
